models/betting_predictor.pth (torch, 46828 bytes, 5 tensors)

layer1.weight f4 [128, 18]
000000 32 66 44 be c9 20 c0 3d 4c 00 b3 bd 6d 8d 12 3e
       -0.1917961 0.09381253 -0.08740291 0.14311762
000010 ac d3 31 3a 69 c9 91 bb e4 55 61 bd 72 ee 6a bd
       0.0006783556 -0.004449059 -0.055013552 -0.057356305
000020 36 ff 11 3e 1d 02 04 bd 5a 18 21 3d 37 9c 95 3d
       0.14257511 -0.032228578 0.039329864 0.07305186
000030 cc ad ca 3d b4 84 0a 3a 13 e0 14 3c 14 85 b3 bd
       0.098964304 0.00052840565 0.009086627 -0.08765617
000040 d0 4b 35 be b2 12 58 3e af d9 b9 3d 37 04 28 3d
       -0.17704701 0.21100882 0.09074723 0.041019645
000050 89 99 95 bc fa 3a 58 3e 80 9f 65 be 98 02 d6 3b
       -0.018261688 0.21116248 -0.22424126 0.006531071
000060 51 3d d8 bd 30 65 e1 bd 2f 69 2c 3e 57 25 9b 3d
       -0.1055857 -0.11005628 0.16837 0.075754814
000070 d6 42 9c 3c 97 30 0c be f3 6e 66 bd 09 6e ce bc
       0.019074839 -0.1369041 -0.056258153 -0.025198953
000080 58 01 f3 3d 5a 94 a5 bd 36 fb f0 3d e0 2a 51 3e
       0.11865491 -0.080849364 0.11766665 0.20426512
000090 59 f5 55 bd dc f6 29 be b6 eb b9 3d 73 a9 77 3e
       -0.052235935 -0.16598076 0.090781614 0.24185733
0000a0 17 82 39 be b6 d1 51 be cd 8d 5a 3e 02 21 09 be
       -0.18116032 -0.20490155 0.21343155 -0.13391498
0000b0 dc 25 8f bd 5b cc 38 3e 49 97 21 be 57 48 57 3e
       -0.06989643 0.18046705 -0.15780367 0.21023689
0000c0 11 9f 8c ba 2b e0 7e bd da 46 4e be af 33 6d be
       -0.0010728558 -0.062225502 -0.20144215 -0.23164247
0000d0 85 b1 1c 3d 6c 3b 1e 3e ca c5 5b 3e de b0 9e bb
       0.038255233 0.15452355 0.2146217 -0.0048428616
0000e0 18 7a 32 3e 95 c0 c0 3d 99 8c ee 3d 94 a4 07 3c
       0.17429388 0.09411732 0.116479106 0.008278985
0000f0 c5 1f 33 bd 04 3a d6 3c 88 91 dc 3d 58 7d 49 be
       -0.04373147 0.02615071 0.107699454 -0.19676721
000100 a8 d9 48 3d a4 84 70 be f8 88 db 3d 53 58 4d bd
       0.0490357 -0.23488098 0.10719484 -0.05013306
000110 b0 c9 52 3d 3a b3 54 be 15 1a 0b be fa 1f 4e bd
       0.051461875 -0.20771495 -0.13584168 -0.050323464
000120 6c 56 99 3d 4e 72 98 bd ae 6a 03 3a 9a 2e 48 be
       0.07487187 -0.07443677 0.000501315 -0.19549027
000130 f0 79 32 be 90 71 17 3e 61 2d 15 be 7b a3 be bd
       -0.17429328 0.14789414 -0.14568092 -0.09308525
000140 e0 2a 1e be 0f c5 e2 3d e8 9a d7 3d 86 b4 e7 bd
       -0.15446043 0.11072742 0.10527593 -0.11313729
000150 47 30 1d 3e 5c cc 03 bd 43 7c 13 3e 86 04 09 bd
       0.15350448 -0.032177314 0.14402871 -0.03345158
000160 87 57 45 be 47 30 59 be bd e4 52 3e 9a 24 31 3e
       -0.1927167 -0.21209823 0.20595069 0.17299119
000170 83 a6 11 be 50 ce 54 3e a5 e1 73 bd a8 e3 3c be
       -0.14223675 0.20781827 -0.059541363 -0.18446219
000180 f8 b7 cd bd 1d 00 08 3e 12 d6 4c 3e 11 d1 fd 3d
       -0.10044855 0.13281293 0.20003536 0.12393392
000190 6c 9f 7a 3d c9 97 fb 3c 63 c6 f2 bc 19 72 47 be
       0.061187193 0.030712025 -0.029635614 -0.19477119
0001a0 43 c6 26 3e 19 76 f3 3c 90 16 ed bc 8b 53 23 3e
       0.16286568 0.0297194 -0.028941423 0.15949838
0001b0 02 82 69 3e d4 20 3f be 8c c2 ed 3b a8 40 5f be
       0.228035 -0.18664867 0.007255858 -0.21802008
0001c0 20 f8 29 bd 6e 1e a2 3c e7 a9 01 3c 90 4e 55 3e
       -0.041496396 0.0197899 0.007914043 0.2083075
0001d0 95 b3 d6 ba d7 62 0d 3e c3 15 2e 3e ad 22 3f be
       -0.0016380424 0.13807236 0.17000489 -0.18665572
0001e0 7c 34 56 3e 9b 60 51 be 4b 8f 4e 3e ee ad 76 bc
       0.20918459 -0.20447008 0.2017185 -0.0150561165
0001f0 f8 8f 53 3e f6 52 93 3b a4 cd cd bc 2f b4 b0 3d
       0.20660388 0.0044959737 -0.025122471 0.08628117
000200 63 7a c0 3c 58 ac 8c bd f6 cb 44 3e 62 62 2c be
       0.023495859 -0.068688095 0.1921843 -0.16834405
000210 aa eb a1 bd f5 7b 0f bd 9e ff d7 bd a5 18 8a 3c
       -0.079062775 -0.035030324 -0.10546802 0.016857455
000220 e4 31 49 be 3d 93 cd bb db 1f 2a 3e 78 d1 ca 3b
       -0.19647938 -0.0062736557 0.16613714 0.0061895214
000230 6b d7 14 3d 4d 2d 16 bd f0 3d 63 be fe d9 65 3e
       0.03633825 -0.036664296 -0.22191596 0.22446439
000240 7b 1f da bd 92 85 76 be 2c 59 dd 3d 9b 72 1c 3e
       -0.10650536 -0.2407439 0.10808024 0.15278094
000250 c3 aa 31 be 5d af 19 be 4b 1b 5c 3e a1 ab 5f 3e
       -0.17350297 -0.15008302 0.21494786 0.21842815
000260 3c d1 44 bd 82 29 3e 3e cb c7 18 be 2b 9e 04 3e
       -0.048051104 0.18570521 -0.14919965 0.12950961
000270 1c 7d 5b bd ac 29 c5 3d 84 40 18 be e2 58 2d be
       -0.05358611 0.09627089 -0.14868361 -0.16928437
000280 0b 0f a8 bd 37 55 a4 bd fd 25 87 bd 7b 4a 85 3c
       -0.08205994 -0.08024066 -0.065990426 0.016270867
000290 19 ee 86 bd 56 29 da bd fa 4d f5 3d 13 e0 94 bd
       -0.06588382 -0.106524155 0.119777635 -0.07269301
0002a0 22 e5 22 be 0b 5e 52 3e bb d7 f8 3d 05 ab 2e be
       -0.1590772 0.20543687 0.12150522 -0.17057426
0002b0 af ac 1e bd 38 c8 80 bc 79 29 6f 3e 92 ad fb 3d
       -0.038738903 -0.015720472 0.23355664 0.12288965
0002c0 13 77 64 be 39 ab 05 be 64 8e a7 bc 49 42 96 bd
       -0.22311048 -0.13053598 -0.02045364 -0.07336862
0002d0 41 85 29 be da a9 f7 3d 29 13 f4 3d 7b a7 03 be
       -0.16554739 0.120929435 0.11917717 -0.12856857
0002e0 82 70 16 bd 95 66 65 3e 07 bd d0 3d fd f7 5b bc
       -0.03672839 0.22402413 0.10192304 -0.013425824
0002f0 1b 92 1c be 06 54 fe bc 76 73 c5 bd 25 fc 71 bd
       -0.1529011 -0.031045925 -0.09641163 -0.059078354
000300 e1 2e a6 3d 98 77 c4 bd a7 18 71 be ad c8 02 be
       0.0811441 -0.09593123 -0.2354456 -0.12771864
000310 c1 e8 30 bd f1 19 da 3d 12 58 99 bd 69 19 76 bd
       -0.04319072 0.10649479 -0.07487501 -0.060082827
000320 5e 70 20 3e c9 81 29 be 5f 2e 5b be 67 8e d6 3d
       0.15667865 -0.16553415 -0.21404408 0.1047638
000330 8b f0 ee 3d a8 46 05 be a2 86 42 bd c2 65 36 3e
       0.11666974 -0.13015234 -0.047491677 0.17812255
000340 c9 2f 20 be ed 9b 70 be d3 ee 0a be 75 0f 00 3d
       -0.15643229 -0.23496981 -0.13567667 0.03126474
000350 17 82 9a 3d cf ec 5c 3d 57 a2 37 3c 17 41 9c 3d
       0.07544344 0.053936776 0.011208138 0.076296024
000360 2a 8a 0a be c9 19 ed 3c 9e b0 42 be 59 36 b1 bd
       -0.13529268 0.02894296 -0.19012687 -0.08652944
000370 14 41 64 be 5a 2b 36 be 52 bc 6a 3e 22 cb 52 3c
       -0.2229045 -0.17789975 0.22923401 0.012865813
000380 08 af e8 3d 58 bd b9 3d 40 4d 66 3e 70 4c c9 3d
       0.113615096 0.090693176 0.22490406 0.098290324
000390 06 94 42 3c 34 ee 63 3d 63 d6 d6 3c 4c 3f 93 3b
       0.011876112 0.05564709 0.026225274 0.0044936296
0003a0 31 4f 45 be 96 06 51 3e 03 95 cd bd 1d 1a 75 bd
       -0.1926849 0.20412669 -0.10038187 -0.059839357
0003b0 c8 8f 50 bd b7 84 da bd 67 4d 4b be 5e 88 0a be
       -0.05091837 -0.106698446 -0.19853745 -0.13528582
0003c0 b4 0e 44 3e e6 b3 53 be db 69 e6 bd bd 12 84 3d
       0.19146234 -0.20674095 -0.11250659 0.064488865
0003d0 c5 53 07 be bd 39 dc 3c dd 8e 64 be 40 c9 e1 39
       -0.1321555 0.026883 -0.22320123 0.00043065287
0003e0 d7 a6 e0 bc bd c7 02 3e b2 9a 9f 3c 1a db 26 3e
       -0.027423305 0.12771507 0.019482944 0.16294518
0003f0 6f 62 1b be ec 5c b2 3d 38 27 a9 bd 75 fd 45 be
       -0.15174268 0.0870913 -0.082594335 -0.19334967

layer1.bias f4 [128]
000000 60 c0 d8 3d 2f 84 2e 3e 98 20 27 bd d0 fa 97 bd
       0.105835676 0.17042612 -0.04080257 -0.074208856
000010 08 cb c6 3d e1 a1 c5 3d 47 29 6d be e9 a4 22 be
       0.09706694 0.096500166 -0.23160277 -0.1588322
000020 a1 f0 12 be d6 ef d0 3d e2 21 4b 3e 0a 33 4d 3e
       -0.14349605 0.10201995 0.19837144 0.20039001
000030 c1 4f 18 3e 28 01 55 bb 78 c4 cc bd a3 7b d0 3c
       0.14874174 -0.003250191 -0.09998411 0.02544958
000040 49 3d 8e bc 3a 23 b4 3d 88 aa b2 3d 90 e6 14 be
       -0.017363207 0.087957814 0.087239325 -0.14541078
000050 05 c4 52 be 1b 65 24 3e 48 d3 0f 3e 69 17 35 bc
       -0.20582588 0.16054194 0.14045441 -0.011052945
000060 15 6b e4 3c 23 2f 17 3e 00 3e f2 bd 8c 3e 00 be
       0.027883092 0.14764075 -0.11828232 -0.1252386
000070 57 b0 b3 3c c5 dd 9d bd 83 55 3d bd d1 55 ab 3c
       0.021934671 -0.07708315 -0.04622413 0.020914944
000080 61 36 a2 3d 41 3c b5 3c fb 74 0f be 1f 6e 09 3e
       0.07920528 0.022123458 -0.14009468 0.13420914
000090 97 2b 22 3e 5d c8 8b 3d 00 bb 08 3e f0 80 53 be
       0.1583694 0.06825326 0.13352585 -0.20654655
0000a0 f7 9f 30 3e 6a 51 18 be 0a 11 9f bd e7 bf 1e 3e
       0.17248522 -0.14874807 -0.07766922 0.15502892
0000b0 30 dd ab bd cd 91 83 bd 4e e2 cc bd 5b 4d b2 bb
       -0.083917975 -0.06424294 -0.10004102 -0.0054413504
0000c0 31 70 5f 3e 57 a4 8d 3c 3f c9 59 3d 0c b2 27 be
       0.21820141 0.017290277 0.05317044 -0.16376513
0000d0 2b d4 18 be cc 7b a4 bd 4b 4a f3 bd 15 a6 33 be
       -0.14924686 -0.08031425 -0.11879405 -0.17543824
0000e0 be 3d e2 3d 11 8f 27 be a1 e0 65 3e f9 08 1f be
       0.11046933 -0.16363169 0.2244897 -0.15530767
0000f0 89 46 15 3e 37 66 73 3e 32 38 26 bd 54 ec cc bd
       0.14577688 0.2376946 -0.040580936 -0.100060135
000100 b5 97 41 3e fb 02 45 3e 7c 6f d7 3c e7 1a 49 be
       0.18905528 0.19239418 0.026298277 -0.19639169
000110 6e 64 cf 3d e5 b3 67 3e 63 ef 1e 3e 40 2d 63 bd
       0.10126577 0.22627218 0.15521006 -0.055463076
000120 c0 b3 9f bd 21 2c 38 3e c4 6a 8f 3d 0d 16 4b be
       -0.077979565 0.17985584 0.07002786 -0.1983263
000130 38 47 65 be 8a 5f 0d be f8 b6 85 3d e7 b9 62 3e
       -0.22390449 -0.13805977 0.06529039 0.22141229
000140 9c 29 2b 3e f3 61 06 be e4 97 4a be 8b 98 6b 3e
       0.16715091 -0.13123302 -0.19784504 0.2300741
000150 18 83 c0 bd ad b0 05 be 93 52 33 be 50 4f c1 bc
       -0.09400004 -0.13055678 -0.17511968 -0.02359739
000160 90 d5 2f be f5 93 32 bd e2 56 87 3d ba 87 2c 3e
       -0.17171311 -0.043598134 0.066083685 0.1684865
000170 35 72 88 bd 16 7a 09 bd 8d 80 66 be 5d 3a ea 3d
       -0.06662408 -0.033563696 -0.22509976 0.11436913
000180 9d aa 23 3d d6 7e 9d bd 15 09 c5 bd f0 be a7 bd
       0.03995763 -0.07690208 -0.09620873 -0.08190715
000190 05 49 bb bd 05 fb c6 bb 8d bd 41 be bd 61 36 3e
       -0.09144787 -0.0060724043 -0.18919964 0.17810722
0001a0 fe ad 08 3c 30 9c 7f 3d c5 15 5e be e4 a9 e0 bd
       0.008342264 0.06240481 -0.21687992 -0.10969904
0001b0 f0 06 ea 3c 11 be a8 3c 1d a9 25 3e 15 7f ea 3d
       0.028567761 0.020598443 0.16177793 0.1145002
0001c0 fc 3c aa 3c aa 0f 69 3e 1f 6d 90 bd 06 23 fc 3d
       0.020781033 0.22759882 -0.07052063 0.12311368
0001d0 c8 71 02 be 06 56 6e 3e 76 e3 b1 bd 65 f0 67 be
       -0.12738717 0.23275003 -0.08685963 -0.22650297
0001e0 be 7a 53 be 27 88 69 be 1d b3 42 3e f9 fb 30 bd
       -0.20652291 -0.22805844 0.19013639 -0.04320905
0001f0 c0 97 03 be 9f f1 8d 3d 3e 2d 38 ba 54 38 87 3d
       -0.12850857 0.06930851 -0.00070257846 0.066025406

layer2.weight f4 [64, 128]
000000 83 b5 73 bd f4 98 f7 3c da b4 9b bd 78 2d 24 3c
       -0.059499275 0.0302243 -0.07602854 0.010020606
000010 4e 46 7f 3d b4 cd 31 bc a7 78 61 bc 59 94 ca 3c
       0.062322907 -0.010852266 -0.013761676 0.02472894
000020 b2 c4 84 3c 11 23 94 3d f4 d2 80 3d 60 f3 9e bd
       0.016207073 0.07233251 0.06290236 -0.07761264
000030 9c 26 aa 3d 58 4a 06 3d 0e 7a 72 3d 0e 9c 74 bc
       0.083081454 0.032785743 0.05919843 -0.014929784
000040 7c 36 12 3d de 2c 16 bb 08 c8 46 3d 5f f2 a4 bd
       0.03569649 -0.0022914927 0.04853061 -0.08054041
000050 0e b6 58 3c f9 9b 9b 3d 89 37 dd 3c 5e ba 8e 3c
       0.013226999 0.07598109 0.02700402 0.017422851
000060 7f 69 79 bc 51 2d 9d bd 18 1e 2e bd e2 a6 2b 3d
       -0.015222906 -0.07674659 -0.04250917 0.0419072
000070 9c 20 88 bd c2 e6 a0 bd b5 ba 2a bd 14 3e 04 3c
       -0.06646845 -0.078565136 -0.041681964 0.008071441
000080 37 c7 b2 bd 6d fc ba 3d b8 ca 67 bd 47 b2 86 3d
       -0.087294035 0.09130178 -0.056589812 0.065769725
000090 99 8f 6f bd 8b bf 9e bc 18 d1 80 3d ee 32 0d bd
       -0.058486555 -0.019378444 0.062898815 -0.0344724
0000a0 46 5b b0 bd 71 67 e3 bc 13 6c 31 3c 52 7e 3d 3d
       -0.08611159 -0.027759286 0.01082899 0.046263047
0000b0 21 1d cb bc d1 88 16 bd 94 6e 1a 3d b9 45 3a 3d
       -0.024794163 -0.036751572 0.03770311 0.04547665
0000c0 29 fe 81 3c 1b f9 e3 bc 0f 2a 17 bd 7a 7e 92 3d
       0.015868263 -0.027828744 -0.036905345 0.0715303
0000d0 cc b7 12 3d de ac c3 bc b3 50 8c bd 0a 3e b9 bd
       0.035819814 -0.02388614 -0.0685133 -0.09045036
0000e0 2f 3a 3a bd 38 8e 25 3d 07 d3 84 bd 18 67 aa 3d
       -0.045465644 0.040418833 -0.06485563 0.08320445
0000f0 41 62 88 3d ec d7 66 3d a3 8e d0 bc 3e 5d 36 3c
       0.066593654 0.056358263 -0.02545864 0.011130629
000100 a0 99 58 3d b5 9b 6a bd ef 8d 78 bb 8a 7c a2 bc
       0.052880883 -0.0572774 -0.0037926396 -0.019834775
000110 11 83 e6 bb 47 c0 a6 bb 4b 06 29 bd 8b bc 78 3d
       -0.0070346673 -0.005088839 -0.041265767 0.060726684
000120 53 46 8d bb 04 38 6c bc f6 ec 66 3d 29 0f 37 3d
       -0.004311362 -0.014417652 0.056378327 0.044692192
000130 5b 43 82 bd b0 9e 26 bc b2 0c 27 bd b6 d3 9e 3d
       -0.06360503 -0.01016967 -0.04078359 0.077552244
000140 4d eb bc 3c d6 91 8e bc 33 ea f1 3c 68 ba 26 bd
       0.023061419 -0.017403524 0.02953062 -0.040705115
000150 55 b1 7c 3d 8d 51 a4 bd b8 4b 6c bd 3c e8 d2 3b
       0.061692555 -0.08023367 -0.0576894 0.006436376
000160 5e 38 54 bd 27 7d 9f bd 86 03 6d bd cb 2c 97 3d
       -0.05181157 -0.07787543 -0.05786469 0.073815905
000170 a9 f3 00 3d 0c 15 82 bc ec c6 0f bd 87 c5 c3 3c
       0.031482372 -0.015879177 -0.035101816 0.0238979
000180 67 fe 2b 3d ce 54 80 3d a3 67 8a bd 70 06 4c 3c
       0.041990664 0.06266175 -0.067580484 0.012452707
000190 54 f7 ee bb d7 9c 12 bd eb 06 30 3d 3b 30 c3 3c
       -0.0072926674 -0.035794105 0.042975347 0.023826709
0001a0 f6 bb a2 3d 58 11 76 3d 4c 06 20 bd 54 62 7c 3d
       0.07946007 0.060075134 -0.039068505 0.06161721
0001b0 c6 ed 90 3d 99 51 60 bd ff 1b 96 3b 6c e0 df 3c
       0.07076602 -0.054765318 0.004580974 0.027328692
0001c0 0a 31 27 39 e8 5d 38 bd ee d0 75 3d 14 5d 9f bd
       0.0001594463 -0.04501143 0.060013704 -0.07781425
0001d0 ae 8e 3b 3d f0 71 17 bd a8 15 6a 3c 74 f5 a9 3d
       0.045790367 -0.036973894 0.01428739 0.082987696
0001e0 06 f5 18 3d 0e 1d 86 3b 06 66 36 3d 82 c5 a5 bd
       0.037343048 0.004092819 0.04453089 -0.08094312
0001f0 8a 5a 7e bd 00 61 69 3d 8f 44 1e 3d d2 80 bf 3b
       -0.062098064 0.056977272 0.0386396 0.005844214
000200 67 dd dc bc bd fb 8d ba f7 1e 96 bd 63 3f 15 3d
       -0.026961042 -0.001083247 -0.07330125 0.036437403
000210 e8 7a 38 3d a4 1e 91 3b e8 cc cd 3c ef d9 9c 3d
       0.045039088 0.0044287015 0.025122121 0.07658755
000220 12 bc 9f 3d 6d 63 52 3c 4f f4 36 bd d9 1a ee 3a
       0.077995434 0.012841088 -0.044666585 0.001816596
000230 ad 44 d0 bc 84 8d ed 3c bf 40 1e bd 9d 07 8b bc
       -0.025423372 0.028998144 -0.038635965 -0.016971404
000240 9e 57 b5 bd 15 d1 2a bc 25 bc 92 3d ca 3f 87 ba
       -0.08854602 -0.010425826 0.07164792 -0.0010318693
000250 5b 51 ad 3c 68 c9 3a 3c d8 06 79 bc 43 05 61 3d
       0.021156957 0.011400558 -0.015199386 0.05493666
000260 d4 bb 9a 3d ba 6e 11 bc c2 d3 a9 3c ba 55 68 bd
       0.075553566 -0.008876497 0.020730857 -0.05672238
000270 42 3e 4c 3d 3a 71 b5 3d 18 c8 46 bd 9c 96 c2 3c
       0.04986406 0.08859487 -0.048530668 0.023753457
000280 31 97 a5 bd 0e 6b 9e 3d c0 b2 b8 bd f7 22 6f bd
       -0.08085478 0.07735263 -0.09018469 -0.058382954
000290 e5 34 9f 3d 0b 36 37 bd 13 e3 17 3d f1 12 70 3d
       0.07773761 -0.044729274 0.03708179 0.058611814
0002a0 88 dc 9e bd 6b 5c 90 bc 86 cd a0 bd 48 c7 40 3d
       -0.07756907 -0.017622193 -0.078517005 0.04706505
0002b0 02 59 09 3d 5a 52 8f 39 35 1f 7d 3d 6c c0 5f bd
       0.03353215 0.00027336442 0.06179734 -0.054626867
0002c0 79 13 3a ba 88 b0 a7 3d 2a 62 4b bb 1b 40 22 bd
       -0.00070982386 0.081879675 -0.0031033852 -0.039611917
0002d0 5a 73 7c 3c fd 26 a9 3c 7e 0b 9c 3d 3e e7 0f 3d
       0.015408361 0.020648474 0.076193795 0.03513264
0002e0 bd 7d 6c bd 87 d7 94 bb 0d 3b 32 bb f5 45 7e 3d
       -0.0577371 -0.0045422944 -0.0027195842 0.062078435
0002f0 0f a7 55 bd ec 92 47 3d 41 7c c2 bb cf 81 bf bd
       -0.052161273 0.0487241 -0.0059352224 -0.09350931
000300 78 e1 ec bc 43 3d 43 bd a7 4b 51 bc 22 b7 49 bc
       -0.028916106 -0.047665846 -0.012774385 -0.012311729
000310 14 79 88 bd 94 07 25 bd 30 fa 8f bc a4 8c cd bc
       -0.06663719 -0.04029043 -0.017575353 -0.025091477
000320 d7 7f b5 bc 86 c6 4f bc 90 73 7d 3d a8 5a ad 3d
       -0.022155685 -0.012681609 0.061877787 0.08464557
000330 60 2a 92 bd 33 79 7f bc 70 67 41 39 c8 3f 96 3d
       -0.07136989 -0.015592861 0.00018444448 0.07336384
000340 49 03 19 bb 7c f8 33 bd 18 a9 9c 3c c5 dd a6 bd
       -0.0023347905 -0.043938145 0.019123599 -0.08147768
000350 4c 00 44 bd 97 f8 41 bd 1b e5 84 bd 2d ce 7c bd
       -0.047851846 -0.047356214 -0.06489011 -0.061720062
000360 31 22 6c 3d 09 0d fa bc 11 89 93 3b 98 6a 2a bd
       0.057649795 -0.030523794 0.0045024236 -0.041605562
000370 1d 3b 33 bd 7c 49 2d 3d 60 4e 17 bc ab c9 57 3d
       -0.043757547 0.04230641 -0.009234995 0.05268256
000380 f6 e3 95 bd 50 0e 01 bd bb 8f 53 bd 42 73 b9 3d
       -0.07318871 -0.03150779 -0.051650744 0.09055187
000390 b6 90 1c bd 04 68 30 bd 67 67 52 bd d9 7c 56 3d
       -0.038223945 -0.043067947 -0.051368143 0.052365158
0003a0 2d 00 80 bd ec 8b 0b 3d 74 80 9a 3d d2 65 81 3d
       -0.062500335 0.034068987 0.07544032 0.06318249
0003b0 45 80 29 3d 2e 87 45 3d 07 8c 85 bd c3 88 96 bb
       0.041382093 0.04822462 -0.06520849 -0.00459394
0003c0 cc 24 49 3d 9a fe da bc 10 cd f0 3b fc 9e 8d 3d
       0.049107358 -0.026732732 0.007348664 0.069150895
0003d0 aa 8c 5b bd 03 30 7f 3d 8b 08 99 3c 12 7d 9c bb
       -0.053600945 0.062301647 0.018680831 -0.0047756517
0003e0 1c d7 f1 3c 62 2c 0d 3c ae 82 3c 3c 1a 4a 78 3d
       0.029521517 0.008616539 0.011505766 0.060617544
0003f0 4c e1 b3 3d ec 1f 2d 3d a2 04 f0 3c a8 e9 0a bd
       0.08783206 0.04226677 0.029299084 -0.03391424

layer2.bias f4 [64]
000000 3a 51 b7 bd 72 77 88 bd 7b db 71 bc 81 da ef bc
       -0.089510396 -0.066634074 -0.014761801 -0.029278995
000010 d9 96 8f bd d5 dd 5b 3d 4d dc 89 3c 62 a1 c7 3d
       -0.07011194 0.053678352 0.01682868 0.09747578
000020 79 bb c6 bc f7 2a 85 bd c4 74 ac bd cf c6 e2 bc
       -0.024259316 -0.065023355 -0.08420709 -0.02768269
000030 c1 5e 8d bd 22 7c d2 3c 2b da 07 bd 6b e3 14 3d
       -0.069028385 0.025693957 -0.033167046 0.036349695
000040 e8 3d 9c bc 84 b5 3c bc 76 98 6c bd 2e d9 cc bb
       -0.019072488 -0.011517886 -0.057762586 -0.006251476
000050 21 1e f6 3c b2 b0 13 3d 0b 38 b2 3d de e7 6f bc
       0.030043663 0.03605718 0.087020956 -0.014642684
000060 26 78 f1 3c f6 62 82 3c 19 5f db 3c f5 d5 00 3c
       0.029476237 0.015916329 0.026778745 0.007863511
000070 76 0f a1 3d 35 e5 ab 3d be 3d 03 3d 7e 45 c6 bc
       0.07864277 0.08393327 0.032041304 -0.024203058
000080 7b 7d 9f 3a c4 77 67 bd 33 07 85 bc 1a f9 cb 3b
       0.0012168133 -0.0565107 -0.016238784 0.0062247636
000090 cb f2 88 3d 90 18 02 bb 3d e2 96 bd 9c 2a 5e bc
       0.06686934 -0.0019851066 -0.0736737 -0.013559964
0000a0 ea 8d 72 3d bc 9c 8c 3d cb f5 99 bc fb eb 1a bc
       0.05921737 0.06865832 -0.018793961 -0.009455676
0000b0 d4 6d 06 bd 77 88 6f 3d 41 d3 88 3c 99 21 99 3d
       -0.032819584 0.058479752 0.016702296 0.07477111
0000c0 f9 41 66 bc 2c 28 57 bd 32 4e a4 bd db 9c 30 bd
       -0.014053815 -0.052528545 -0.08022727 -0.04311834
0000d0 8a 43 a2 3c c1 55 32 bd 9e 92 c0 bd b7 bf bc 3d
       0.019807596 -0.043538813 -0.09402965 0.09216254
0000e0 bb 95 19 bc 14 6b a2 3d 57 ff b0 3d b6 b8 df bc
       -0.009374077 0.0793058 0.08642452 -0.027309757
0000f0 39 1a 8b 3d 9c 5c 93 3d a8 d5 8a 3d db 7e b9 bb
       0.06792111 0.07195398 0.06779033 -0.0056608743

layer3.weight f4 [1, 64]
000000 df fe 7c bc 13 7d 08 bd 28 44 be 3d a6 c6 70 3b
       -0.015441625 -0.033322405 0.092903435 0.0036739497
000010 15 6c d3 bc 36 cc c5 ba 57 c5 85 bd 2a 8a bd 3d
       -0.025808373 -0.0015090767 -0.0653178 0.09254868
000020 bf 14 7c bd e4 a2 03 3d 50 a3 a8 3b bd 73 93 bd
       -0.061543223 0.032137766 0.0051464215 -0.0719981
000030 b5 3d 9a bc 58 26 a3 3c c5 7a f2 3d 9e 3c ab 3d
       -0.018828252 0.019915745 0.11839823 0.08361171
000040 35 32 02 3d 08 1a 81 3d 4b 9b ed bd 55 e7 be 3d
       0.031786162 0.06303793 -0.116018854 0.09321467
000050 c8 d4 c6 bc db 54 ab 3d 7f 14 66 3d fc 42 07 3e
       -0.024271384 0.08365794 0.05617189 0.13209146
000060 f9 61 e1 bd 91 f8 ab bd 58 ea 01 be 7d 80 03 3e
       -0.11005015 -0.0839702 -0.12687051 0.12841983
000070 d4 2b 24 3c 44 6b 5a 3c 0f c2 fd 3d c1 8f 8e bb
       0.010020215 0.013331238 0.12390529 -0.004350633
000080 8f 19 00 3e 6b 00 8c bc 4b e8 e7 3d 08 5f cf 3c
       0.1250975 -0.017090043 0.11323603 0.02531387
000090 5f ad 02 3e 23 c9 6c 3d 42 e0 3c 3d 4e d3 f7 3b
       0.12761448 0.057809006 0.046112306 0.0075630313
0000a0 a2 0c 8b bd f3 d4 5e bc 27 08 84 3d af e6 d1 3c
       -0.06789519 -0.013600576 0.064468674 0.025622694
0000b0 00 8f 92 3b 1c 20 5c 3d 65 78 9d bd 1d 57 b8 bd
       0.0044726133 0.05374156 -0.07688979 -0.090009905
0000c0 82 9a c5 bd 05 f7 06 bd 38 6d 45 bd 2b b7 b1 3d
       -0.09648611 -0.03295042 -0.048199862 0.08677515
0000d0 aa 68 c4 3d bf ec f1 bd ff 2d ad bd 07 5f 98 3d
       0.095902756 -0.11812734 -0.08456039 0.0744
0000e0 00 3a c5 3d 4e 50 7d 3d 03 65 15 3c 53 bd 54 bd
       0.09630203 0.061844163 0.009118321 -0.051938366
0000f0 ea ca 81 3b e7 13 6d bc 5e 33 b7 bd 88 f5 fa 3d
       0.003960957 -0.014470077 -0.089453444 0.122538626
