models/sports_predictor.pth (torch, 41378 bytes, 5 tensors)

layer1.weight f4 [128, 8]
000000 15 30 32 bc 67 e2 95 be 83 98 4c 3d 52 d0 15 3e
       -0.010875721 -0.29274294 0.049950134 0.14630249
000010 01 6d ab be 33 5f 82 3e 0d 0b 52 3e 4a f8 6b 3c
       -0.334816 0.25463256 0.20512028 0.014402458
000020 b3 37 8d 3e e1 55 9c be 14 2f 79 bd 23 80 93 3e
       0.27581558 -0.3053427 -0.060835913 0.28808698
000030 c9 97 5c bc a6 67 55 3e dd b3 af be be 55 02 3d
       -0.013463923 0.2084032 -0.34316912 0.03182005
000040 91 23 1c bd d5 be 02 bd b3 23 25 be cd 46 95 be
       -0.038119856 -0.031920273 -0.161269 -0.2915558
000050 2f 8f 97 be 39 83 f1 3d fa b0 ad be cc 38 41 3e
       -0.29601428 0.11792607 -0.33924085 0.18869323
000060 fe d9 dc bd 32 06 ab bd a4 a6 98 3e 2d 14 50 3e
       -0.10783766 -0.08350791 0.29814637 0.20320196
000070 29 6a c9 bd ee 39 53 be 21 d7 d5 3c fb b1 64 3d
       -0.098347016 -0.20627567 0.026103558 0.055833798
000080 aa 7c a2 be dd 57 f3 bc 3d 94 9b 3e 64 54 68 3e
       -0.31735736 -0.029704982 0.30386534 0.22688442
000090 21 3a a5 bd ed ae 85 be 43 90 92 3d 09 3d a2 3e
       -0.08067728 -0.2611002 0.07156422 0.3168719
0000a0 17 dd 97 3e a4 f0 84 be 50 3a 89 be 87 12 6f 3e
       0.29660866 -0.25964844 -0.268023 0.23346911
0000b0 31 fd 2c 3d 9b 80 a5 3d c4 0b 98 3c 0b dc ac 3e
       0.04223365 0.0808117 0.018560298 0.3376163
0000c0 d4 0e 93 3d de f3 ed 3d 3d 40 a0 3e 56 ce e2 3d
       0.071805626 0.116187796 0.3129901 0.11074512
0000d0 9f cb 79 3e 53 d9 ad 3e a8 b1 ad 3d 16 cb 79 bd
       0.24394082 0.33954868 0.08481151 -0.060984693
0000e0 34 6b 44 3e 42 d2 2e be 56 0e df bd fc 3c 9a 3e
       0.1918152 -0.17072394 -0.10891406 0.30124652
0000f0 2d cf 9e 3e a3 c1 fe 3d fe 50 9b be 1e 68 ef 3d
       0.31017438 0.12439277 -0.3033523 0.11689781
000100 9b bc 49 be f8 ac 4d 3e c1 f2 20 be bd a7 93 be
       -0.19700854 0.20085514 -0.15717603 -0.28838912
000110 37 6e 0c 3d ca de 95 be 59 96 7b 3e 3b 68 76 3e
       0.034284797 -0.29271537 0.24569072 0.24063198
000120 d8 1d 7a bd 26 51 39 3e 87 b1 f7 bd 5e 8d ac 3e
       -0.061063617 0.18097362 -0.120944075 0.33701605
000130 f5 dd 97 be bd 4b 44 3e 94 df 48 bd de ab cc 3d
       -0.29661527 0.19169517 -0.049041346 0.099937186
000140 c2 fa 39 3e f9 5c 80 bc 2c 7b 88 bd 77 5d 23 be
       0.18162063 -0.015669333 -0.06664118 -0.15953623
000150 3a 51 d3 3d 8f 66 33 be 63 30 30 be 94 8a c3 bd
       0.10318227 -0.17519592 -0.17205958 -0.09547916
000160 f5 4e 5e be f0 e0 4e 3e 5b a2 55 be 18 67 eb 3d
       -0.21709807 0.20202994 -0.20862715 0.11494273
000170 cb 99 0a be 30 28 6e be 41 a4 8e 3e bc a5 a2 3e
       -0.1353523 -0.23257518 0.2785969 0.3176707
000180 66 5c ed bd 8f aa 95 3d 97 66 15 3e b3 07 4f 3e
       -0.11589889 0.07307922 0.14589916 0.20217781
000190 11 3d 7c 3e 92 c2 3f be f4 57 13 bc 20 ad 3a be
       0.2463267 -0.18726566 -0.008993138 -0.18230104
0001a0 f7 ce 08 3d 54 7b 6f be 3d 21 ca 3d 9a 34 1b 3e
       0.033400502 -0.2338689 0.09869621 0.15156785
0001b0 8a 53 51 be 2f d6 8b bc 9c a8 99 be 7a e4 90 be
       -0.20442024 -0.017069904 -0.3001145 -0.28299314
0001c0 55 81 a8 bc 35 ba ae 3e 54 f1 8b 3c 8e 7a 9c 3e
       -0.020569483 0.3412644 0.017082848 0.30562252
0001d0 8a f7 11 be 27 f4 a7 be 36 a2 2f 3e 70 ef 00 be
       -0.14254585 -0.3280346 0.17151722 -0.12591338
0001e0 4c d7 09 bd fa 5a 6d be 9e 9e cf bd 3c 34 99 be
       -0.03365259 -0.23179236 -0.10137676 -0.29922664
0001f0 b6 91 9d 3d 59 4f 52 be 4e 99 7b be fe 56 82 3e
       0.07693808 -0.20538081 -0.245702 0.25456995
000200 b7 f2 24 3d a8 ea 9a be fd 42 c7 bc c9 28 1d bd
       0.040270533 -0.30257154 -0.024323935 -0.038368974
000210 9c 8b b9 3d 14 15 32 be 8a 5c 31 be 98 02 9a bd
       0.090598315 -0.17390853 -0.17320457 -0.07520026
000220 ad 00 a8 bb 3d 40 a3 3d 31 55 39 3d 38 99 9a bd
       -0.0051270337 0.07971237 0.04524726 -0.075487554
000230 3f 32 af be 83 35 af 3d b4 8f b7 bc 56 32 68 be
       -0.34218022 0.085551284 -0.02240739 -0.22675452
000240 de da 81 3e 41 37 77 3d 75 e1 54 3e 34 1c 46 3e
       0.25362295 0.06035543 0.2078913 0.19346696
000250 8a 75 a0 bd f1 f2 db 3c 20 6f 09 be 1b ac 57 3e
       -0.07834919 0.026849242 -0.13421297 0.21061747
000260 38 6c 05 ba bb 43 3b bc 9d d0 81 3d 78 c2 4b 3e
       -0.0005089673 -0.011429722 0.06338618 0.19898403
000270 dd 16 91 3e cb 3a b2 3e b8 3e 82 3e d8 99 f8 bd
       0.28337756 0.3481048 0.25438476 -0.12138718
000280 ad 7d 87 3e e3 87 8c 3e e7 71 4b be 94 e7 cd 3d
       0.2646307 0.27447423 -0.19867669 0.10053936
000290 b1 93 9e 3e 88 e4 57 3e 4e 87 88 3e 60 b4 2c be
       0.30972055 0.21083272 0.2666573 -0.16865683
0002a0 7f 1c 95 be 3f 05 75 be f9 82 3a 3e 7a 9f b1 3e
       -0.29123303 -0.23927782 0.18214025 0.34691983
0002b0 37 e5 d7 bd a7 e5 9a be 89 b6 87 3e b3 fa 61 be
       -0.10541766 -0.30253336 0.2650645 -0.2206829
0002c0 4b 5e c1 bd e8 b6 24 3d eb 5c 90 be c4 f2 77 be
       -0.09441813 0.040213495 -0.2819589 -0.24213701
0002d0 a6 5b f8 bc 8f ec 9e bd f0 92 81 be 54 60 30 bd
       -0.030317139 -0.07759964 -0.25307417 -0.043060616
0002e0 bb bc d4 bd 9e 0b 07 be d1 e0 d3 3c 23 a0 48 3d
       -0.1038756 -0.13188025 0.025864037 0.048980843
0002f0 f2 6c 3a be fc 2f 7e 3e c4 fb f9 3d e3 91 a2 be
       -0.18205622 0.24822992 0.122062236 -0.31751928
000300 86 7a 93 3e 74 e5 85 be ad a4 10 3e 64 a5 41 3d
       0.28804415 -0.2615162 0.14125319 0.04727687
000310 b6 43 11 3c 89 7d 21 bb c8 92 84 3c e9 59 90 be
       0.008866241 -0.0024641475 0.016183272 -0.28193596
000320 29 f8 a9 be cb 0f 4a bb 80 5d 80 be dc 13 9e be
       -0.33197144 -0.0030832167 -0.25071335 -0.30874527
000330 71 f9 ee bd 20 28 21 3d 75 83 11 bd 3f ad a6 bc
       -0.11668671 0.039344907 -0.035525758 -0.020346282
000340 43 18 93 3e 07 1c 81 be e5 5c 37 bd 40 30 ac be
       0.28729448 -0.25216696 -0.044766326 -0.33630562
000350 ad 6f 9b 3c a6 32 2e 3e 52 8b 69 3d 22 2b a9 3e
       0.01897415 0.17011508 0.05701763 0.3304072
000360 bf d7 95 3e 7f 0a 57 be c7 9c 0b be f6 0f af 3d
       0.29266164 -0.21000098 -0.13634025 0.08547966
000370 1d c5 ae be 73 58 b2 be f7 43 3e be c1 8c 2c be
       -0.3413476 -0.34833106 -0.18580614 -0.16850568
000380 8e 74 0c 3e 1a 68 72 3c 62 39 61 be 25 d4 ca 3d
       0.13716337 0.014795328 -0.21994546 0.099037446
000390 4f fc 91 3e c3 9d b9 3e 6d d0 50 bd fb 41 91 3e
       0.2851281 0.36253175 -0.05098002 0.28370652
0003a0 8e 45 b2 be bf 13 b0 3e 70 9a 0b be fa 36 64 3e
       -0.3481869 0.34390065 -0.13633132 0.22286597
0003b0 92 da ab bd 3a 5a a8 be a5 5c 29 be c4 be a2 be
       -0.08391298 -0.32881337 -0.16539247 -0.31786168
0003c0 50 16 0f be dc 1c 39 bc 91 56 25 be 2d d8 4b be
       -0.13973355 -0.0112983845 -0.16146304 -0.19906683
0003d0 72 e6 20 be 06 53 3d 3e 04 ee 99 3e 23 d4 9b 3e
       -0.15712908 0.18488702 0.30064404 0.30435285
0003e0 e5 01 cb bd 80 71 66 bd e5 37 87 be 18 6f 89 3e
       -0.09912471 -0.056260586 -0.26409832 0.2684257
0003f0 d6 f6 2f 3e 39 30 77 3e ee f1 40 3c ce f9 1b 3e
       0.17184004 0.24139489 0.0117764305 0.15232012

layer1.bias f4 [128]
000000 c3 ae 9c be 84 b6 9f be 2b b1 87 bd fb 86 50 be
       -0.30602083 -0.31193936 -0.06625589 -0.20363991
000010 54 62 91 3e 84 80 f4 3d cd f9 8a 3e 57 44 0c 3e
       0.2839533 0.11938575 0.27143708 0.13697945
000020 c2 97 3d be 1c 87 a1 3e 98 9f e0 bd ae 6e 95 be
       -0.18514922 0.31548393 -0.1096794 -0.29186004
000030 58 06 1a bd b2 93 51 3d 7c 12 46 bd 5d 96 2d 3e
       -0.037603706 0.051166244 -0.04835747 0.1695189
000040 8b 8e 7e 3e c7 31 8b 3e 78 12 3e 3c 8b 39 b5 be
       0.24859063 0.27186415 0.011601083 -0.35395464
000050 6b a8 a2 bd 8c e5 85 3e bd d5 98 be 1b 1b a8 3c
       -0.079422794 0.26151693 -0.2985057 0.020520737
000060 6c 5f 29 be 8e 9e 99 3e 5c ea 6c be e0 cf 67 3e
       -0.16540307 0.3000378 -0.23136276 0.22637892
000070 f7 eb 86 3e b7 3e 18 be 11 bb 95 be a4 ed d5 bd
       0.26351902 -0.14867674 -0.29244283 -0.10445717
000080 8e 30 8b 3e 64 fa 64 bd b6 eb 39 be 02 2f a9 be
       0.27185482 -0.055902854 -0.18156323 -0.33043677
000090 12 f4 a1 be b2 0a 88 be c4 88 af bc 0b 4e 81 be
       -0.31631523 -0.2657066 -0.02142752 -0.25254855
0000a0 3f 0c a2 3e 9b cf 53 3e 7c 22 d0 3d fc 88 06 3e
       0.31649968 0.20684664 0.101628274 0.13138193
0000b0 89 f5 93 be 7a 09 17 3e 3d cd 14 bd f7 c4 70 be
       -0.28898266 0.14749709 -0.036328543 -0.23512636
0000c0 1c ae 38 be 86 bf a2 be 3a e8 a7 be b9 1e ac be
       -0.18035167 -0.31786746 -0.32794362 -0.3361719
0000d0 4a 1f 40 3c c6 22 3f be 5f ee 30 3e 48 a1 36 3d
       0.01172621 -0.18665609 0.17278431 0.044587404
0000e0 30 3e 88 3d 4b dd b3 3d e2 34 0e 3d ec 6a 8c 3d
       0.06652486 0.08782443 0.0347184 0.06856331
0000f0 01 d0 4f 3e f3 59 5f be d7 75 9e bd fa e6 f8 3d
       0.20294191 -0.21811657 -0.0773732 0.1215343
000100 21 f6 a7 be ef a4 bf bc 23 e1 9d be 5d 99 95 bd
       -0.3280497 -0.023394076 -0.30835828 -0.07304642
000110 07 f7 fe bc 8a 04 9f bb 73 42 b6 be 62 41 f9 bd
       -0.031123651 -0.004852836 -0.35597572 -0.12170674
000120 f9 b0 a3 3e 22 04 fa 3d cb fd 2d 3e d7 75 94 be
       0.31970957 0.122078195 0.16991346 -0.28996155
000130 2f 44 22 3d b7 2a 70 be 97 83 50 bc 68 7f 1a 3e
       0.039615806 -0.23453794 -0.012726686 0.15087664
000140 3c 2a 98 bc 1c 33 dd bc bb a2 ae 3e b0 62 98 be
       -0.018574826 -0.02700191 0.34108528 -0.29762793
000150 c7 8d 8d be a3 75 0f 3e b4 c4 5f 3e 40 b3 4e be
       -0.2764723 0.14009719 0.2185238 -0.20185566
000160 5e fc 5f be 08 8f c3 3d b4 2b 6e be 8f f3 65 3e
       -0.21873614 0.095487654 -0.23258859 0.22456191
000170 f4 34 ac 3e aa d4 18 3e e1 c3 83 3e ed 1e 06 3e
       0.3363415 0.14924875 0.2573538 0.13097735
000180 f5 ac a0 3e 7a 4e be bd 86 30 b3 be 03 44 4b bd
       0.31381956 -0.09292312 -0.34997958 -0.049625408
000190 f9 67 53 be cc 30 56 be 57 32 20 3e 00 4e e6 3d
       -0.20645131 -0.20917052 0.15644203 0.11245346
0001a0 f0 a4 9e bd fc 04 47 3e 23 48 b4 3e f6 e6 9a 3e
       -0.07746303 0.19435495 0.35211286 0.30254334
0001b0 68 d5 fe bd ae 7c 1f 3e ff 33 86 be 69 c8 3b 3e
       -0.12443048 0.15574905 -0.26211545 0.18338169
0001c0 e4 00 88 3e 49 8d e7 3d 7d 97 7c 3d 72 94 a5 bd
       0.2656318 0.11306245 0.061667908 -0.08084954
0001d0 8d 22 56 3e ae d7 a7 bd 0b aa 8f be 6d 1d cb 3c
       0.20911618 -0.081954345 -0.2805942 0.024794305
0001e0 9c e9 7d 3d b7 93 42 3d 76 f4 1d be 3a bd cd bd
       0.061990365 0.047504153 -0.15425286 -0.10045858
0001f0 ce a7 21 3d 74 19 06 3d 19 a0 53 3d c2 93 9d be
       0.03946667 0.032739118 0.051666353 -0.30776793

layer2.weight f4 [64, 128]
000000 b4 af 4f 3d 1d dc 69 bd 27 6e 0f bd c2 53 9d 3d
       0.050704673 -0.057094682 -0.03501716 0.07681991
000010 d8 17 1a bc 4d 1b 46 3d 0e b0 8c 3d 37 ba 91 3d
       -0.009405099 0.04836588 0.06869517 0.07115596
000020 ea 9e 98 3d 23 fa 38 bd bf ec 7f bd 1e 59 32 3d
       0.074521855 -0.045160424 -0.062481638 0.04354202
000030 02 44 9a bd 37 52 80 bd 66 a4 61 3d 83 ba 61 3c
       -0.07532503 -0.06265681 0.055088423 0.013777378
000040 2d b1 5b 3d 3d 83 88 3b a6 bf 8e bd 04 61 93 3d
       0.053635765 0.0041660354 -0.06970148 0.07196239
000050 9a 0b 93 bd 50 d3 68 bd e4 aa f4 3b 26 62 23 3d
       -0.07179947 -0.05684215 0.007466661 0.039888524
000060 99 33 39 3d d8 26 a3 bd 64 8a 28 3d 03 98 2d 3c
       0.045215223 -0.07966393 0.041147605 0.010595324
000070 16 5e a2 3d 46 a1 d6 3c b5 bc 2e bd a7 60 d3 bc
       0.07928102 0.026199948 -0.042660434 -0.025802923
000080 a5 e5 98 bd c8 19 3a bd 0e f6 ab bd ad 50 91 3d
       -0.07465676 -0.045434743 -0.083965406 0.07095466
000090 e3 f0 8b bd c4 a7 97 bd 0a c5 a3 3b 78 c6 e4 bc
       -0.06833055 -0.07405046 0.004997854 -0.027926669
0000a0 1a 39 ad 3b 56 50 25 bc e6 1d 87 3d df 79 3d 3d
       0.005286348 -0.010089954 0.065974995 0.046258803
0000b0 86 03 23 3d 92 65 37 3b 24 c7 57 bd 0b 09 e2 bb
       0.039798282 0.0027984125 -0.05268015 -0.0068980507
0000c0 e6 1a d3 3b 43 58 78 3d 9a a8 53 3d 93 9f ec bc
       0.0064424155 0.060631048 0.051674463 -0.028884685
0000d0 ad 20 83 bd e7 65 8f 3d eb b9 54 bd c7 d6 49 3d
       -0.06402717 0.07001858 -0.051935118 0.049277093
0000e0 71 4a 61 bd 4c 7b 83 bd 28 b0 8f bd 64 0f 1f 3c
       -0.055002633 -0.064200014 -0.07016021 0.009708259
0000f0 23 69 c1 3d d2 f1 6c 3d c7 cf 1b bd e3 37 32 bd
       0.09443881 0.057847805 -0.03803995 -0.04351033
000100 d6 15 b3 bd fc 9e ba 3a bf bc 3e bc b7 a5 c5 3d
       -0.08744399 0.0014238055 -0.01164168 0.09650748
000110 b4 5e 56 3b f7 f1 1f bc 31 fc 43 bc 58 e6 bb bb
       0.0032710256 -0.009762279 -0.011961983 -0.005734246
000120 52 69 87 3d 21 0d 23 bd 42 f4 9d 3d fb ca 79 3d
       0.06611885 -0.039807443 0.07712604 0.060984593
000130 f7 2d 4e 3d 5e 80 a2 3b bd de 3e bd c8 32 90 bd
       0.050336804 0.00495915 -0.04659914 -0.07040936
000140 d9 4f a6 bd ae c5 a1 bd 26 4e ad bd c2 97 1b 3d
       -0.081206985 -0.078990325 -0.08462171 0.037986524
000150 3d 46 9e 3d be 73 0a bc 54 bd 42 bb 52 de ba 3d
       0.07728241 -0.008450447 -0.00297149 0.091244355
000160 0e 14 70 3d c4 8e a6 3d 81 ab a2 3d 91 ff 47 3d
       0.058612876 0.08132699 0.07942868 0.04882771
000170 4c 97 56 3d 81 92 f8 3b a6 9e 2c bd b3 da 8a bd
       0.05239038 0.007585824 -0.042143486 -0.06779995
000180 98 31 3d bd b3 0d d2 3a 74 05 bc bb 93 96 6c bc
       -0.046189874 0.0016025811 -0.0057379548 -0.014440197
000190 57 fa 01 3d 72 fc 71 bd 7b 4b 31 3d b7 70 8c 3c
       0.031732883 -0.05907864 0.043284874 0.01714359
0001a0 92 b5 5e bd 3f 35 79 bc 0e bf 7b bc 2e 62 9c 3d
       -0.054372378 -0.015210449 -0.015365375 0.07635914
0001b0 4a 8c 8a 3b 59 80 ba 3c 91 86 98 bd 6d 94 5c bd
       0.0042281495 0.022766279 -0.074475415 -0.053852487
0001c0 57 88 74 bc 35 33 5d 3d 89 cb b1 3d 3c 91 b7 bc
       -0.014925084 0.054003913 0.086813994 -0.02240812
0001d0 37 70 4b bd 7b 8d 8c 3d d9 d9 20 3d 74 0f a1 3c
       -0.049667563 0.06862923 0.039270256 0.019660689
0001e0 e7 de be 3d 16 7a 91 3d c2 3f 5d 3c 1f b0 f8 3c
       0.09319859 0.07103364 0.013503971 0.030357419
0001f0 d8 c4 38 bc 38 16 97 bd 5e b0 34 3d 3c 7b 49 3d
       -0.0112774 -0.07377285 0.04411351 0.04918979
000200 53 98 cc bb 19 68 fb 3c 97 91 95 bc 95 24 54 3d
       -0.0062437444 0.030689286 -0.0182579 0.0517927
000210 6e 13 0a 3c 8b 42 03 bd 3c 5a 50 bd ac 0d 95 bd
       0.008427484 -0.032045882 -0.050867304 -0.07277998
000220 34 a7 91 3c 8c e6 02 3d 1a 17 16 3b 70 a2 c7 bd
       0.017779924 0.031958148 0.0022901953 -0.09747779
000230 a5 c0 95 3d 62 bf 15 bd 37 83 60 3c a7 2e 4e 3d
       0.07312135 -0.03655947 0.013703159 0.05033746
000240 fc 4f 0b 3d 17 79 a0 3c 40 82 8b bc 70 62 3b bc
       0.034011826 0.01958899 -0.017029881 -0.011437044
000250 81 60 b4 bd 14 2a fd bc 96 88 7f 3d 1f 3a d8 3b
       -0.08807469 -0.030903853 0.062386118 0.0065987254
000260 57 98 16 bd bf 48 96 bd d6 ed ad bd 57 3b 94 3c
       -0.036766376 -0.07338094 -0.08492629 0.018094702
000270 fd d5 28 3d 05 61 c7 bd 9e 38 59 3d 3c 55 e5 bc
       0.0412197 -0.09735302 0.05303251 -0.027994744
000280 ec 00 7d bd 8a 99 27 3c 20 5a 9d 3a c8 cb 2c bd
       -0.061768457 0.010229478 0.0012005009 -0.04218653
000290 30 d8 aa 3c 00 4a 6c 3d 29 93 e9 bb 7b b8 1c 3a
       0.02085504 0.05768776 -0.0071281386 0.00059784175
0002a0 ac 7f ab bd 01 fb ad bd 01 5f 81 bd a6 6f 3f 3b
       -0.08373961 -0.08495141 -0.06316949 0.0029210835
0002b0 4a 36 18 bc 53 e3 f8 bc e7 7a b2 bd d6 9c dc 3c
       -0.009290287 -0.030381834 -0.08714848 0.026930254
0002c0 8c cd 55 bc c0 18 72 bd c0 97 32 bc e4 51 ef 3c
       -0.0130494945 -0.059105635 -0.010900438 0.029213853
0002d0 dc b2 17 3c d9 9e eb bc 50 0c 95 3d f8 cd 5c bd
       0.009258952 -0.028762268 0.07277739 -0.053907365
0002e0 db 4a 2a 3c d3 1c 0b bd 0d 64 86 3d 6e 5a fa 3c
       0.0103938235 -0.033963036 0.06562052 0.030560698
0002f0 4b f0 1c bc fb 99 72 bc 0c 26 8e bd a1 25 ec 3c
       -0.009578775 -0.01480722 -0.069408506 0.028826537
000300 f8 35 2e bc c8 71 9c 3d 28 82 99 3a 72 41 39 bd
       -0.010632984 0.076388896 0.0011711763 -0.04522843
000310 bc 43 89 bd aa d6 9c 3c 70 78 ca 3b e6 8d 80 bd
       -0.067023724 0.019145329 0.006178908 -0.06277065
000320 22 65 52 bd 69 1f 72 3d 3d 52 2a 3d 17 26 79 3d
       -0.05136598 0.059111986 0.041582335 0.06082734
000330 49 b2 b0 bd e0 98 83 bd e0 b8 50 3d d6 66 9f 3b
       -0.08627755 -0.06425643 0.05095756 0.004864554
000340 c8 4d e7 3c cb db 78 bd aa e3 88 bd 94 ce 24 bc
       0.028235331 -0.060756486 -0.066840485 -0.010059018
000350 d2 d4 51 bd 9e 5d 89 3c 9c 7b 86 3d e6 73 49 3d
       -0.051228352 0.016768273 0.06566545 0.049182795
000360 fa b1 16 bd 8f ff b3 3d 09 a8 4a bd bd 7c 51 3d
       -0.036790825 0.08788978 -0.049476657 0.05114435
000370 ec 7d 2c bd c9 89 b0 bd f9 73 5c 3d ee b5 f9 bc
       -0.042112276 -0.086200304 0.053821538 -0.030482259
000380 07 f1 d7 3c f6 cb 11 bd e6 52 e0 bc 07 3e 4e 3d
       0.026360048 -0.035594903 -0.027383279 0.050352123
000390 f1 b4 b3 bd e1 5f 9b bd cd e4 d6 3b fd 76 4d 3d
       -0.08774746 -0.07586647 0.006558037 0.050162304
0003a0 ce 47 9b 3d 77 30 fd bc 60 c7 6c bd 30 5f 78 3d
       0.07582055 -0.030906899 -0.057807326 0.060637653
0003b0 6c 34 bb 3c d2 02 0d bc 34 54 10 3d 1e ff 63 bd
       0.022852145 -0.008606629 0.035236552 -0.05566322
0003c0 ec a8 59 bd 4a a2 1f 3d c4 ee b9 bd b6 6d 37 3d
       -0.053139612 0.03897313 -0.09078744 0.044782363
0003d0 96 9b 1b bd 79 e2 07 3d af 7e 5c bc 36 d4 bf bd
       -0.037990175 0.033174966 -0.013457938 -0.09366648
0003e0 23 db 10 bc 73 35 a7 bd a0 d8 0b 3d bc d0 7d bd
       -0.008841309 -0.081644915 0.034142137 -0.061966643
0003f0 d9 07 1f bd 72 ba 1a 3a b8 7a a7 bd 19 4d af bd
       -0.038825843 0.00059024163 -0.081777036 -0.08559627

layer2.bias f4 [64]
000000 04 28 b1 3d 7c c1 b0 bc bb ab 55 bd 51 02 3d bc
       0.086502105 -0.021576636 -0.052165728 -0.011536197
000010 30 8a 1c bd 80 2e 89 bd bc 25 f0 3a 71 3b 4a bd
       -0.038217723 -0.06698322 0.0018321793 -0.049373094
000020 19 9f 35 3d 03 95 6a bd 0c 05 84 bd 55 f3 02 3d
       0.04434118 -0.057271015 -0.06446275 0.03197034
000030 b5 b7 50 bd dc 90 11 bd 43 47 b8 3c 45 1c 9b bc
       -0.050956447 -0.03553854 0.022494918 -0.018934378
000040 03 37 4d 3d 70 49 50 bd 0c 5c 0f bc be 7e 8b bd
       0.05010129 -0.050851285 -0.008749973 -0.068112835
000050 be 67 b8 bd d2 61 c5 bb ff 01 cb bc e1 60 7b 3d
       -0.09004162 -0.006023624 -0.024781225 0.061371688
000060 65 aa cc 3c 7d d6 8f 3c 8d 83 9f 3d 10 74 77 bc
       0.024983594 0.01755833 0.07788763 -0.015103355
000070 4a 10 be 3b 0d 15 90 bc 32 25 59 3b 98 34 2f bb
       0.0058002817 -0.017588163 0.0033133742 -0.002673423
000080 8c b7 9e bc 98 2c 51 3d fe c0 0a ba 3a 20 b6 3d
       -0.019374631 0.05106792 -0.00052930403 0.088928655
000090 5f ff 26 3d fa 9b 92 bc fb c9 ac bd 29 e8 70 3d
       0.040770885 -0.017896641 -0.08436962 0.058815155
0000a0 9c 97 04 bc 85 c9 5a bd 22 96 9a 3d 4f 0f 83 bc
       -0.008092787 -0.05341484 0.07548167 -0.01599851
0000b0 8a 9b 93 3d 1b 2a a6 3d 0b 4a 69 3d ed 45 9f bd
       0.07207401 0.081135 0.05695538 -0.07777009
0000c0 aa 12 9a 3d 83 27 b2 bd 28 bf b1 bd 05 73 48 bd
       0.07523091 -0.086989425 -0.08679038 -0.048937816
0000d0 03 40 0a bd fa 64 d1 3c ab 50 ba bd af 86 15 bd
       -0.033752453 0.025560845 -0.090974174 -0.036505397
0000e0 f1 53 ba bd b7 74 32 bd bd 73 2b bc a0 6a 99 3d
       -0.09098042 -0.04356834 -0.010464606 0.0749104
0000f0 70 b5 a3 3c bf 0f 8a 3d 71 42 96 3d c8 b4 60 bc
       0.019983977 0.067412846 0.073368914 -0.013714977

layer3.weight f4 [1, 64]
000000 c4 8f f8 bb bd 12 d6 3c d1 35 9e 3d 14 c9 f9 bd
       -0.0075854976 0.026131982 0.077251084 -0.12196556
000010 ce b0 39 bd b6 92 84 3d 4b 87 07 be c0 b9 75 3c
       -0.04533463 0.064732954 -0.13235204 0.0149978995
000020 e8 61 9c bd ea eb 9c bd 88 1d f2 bc ee 08 01 3c
       -0.07635862 -0.076621845 -0.029555097 0.007875664
000030 28 bb eb 3d 95 48 9b 3d 27 ca 8a bc 51 0e 9b bd
       0.115103066 0.07582203 -0.016942097 -0.0757109
000040 2c f3 4f 3d 3e e2 33 3d 90 5f 31 bd 70 ec c9 bc
       0.050769016 0.043916933 -0.043304026 -0.024648875
000050 40 d2 ae 3d ed 16 01 3d 9e d6 40 3c ac 6a 00 be
       0.08536196 0.031516004 0.011769919 -0.12540692
000060 83 de cc bd d1 d2 ac bb 14 59 f1 3d 14 f9 7d bd
       -0.10003378 -0.0052741547 0.117845684 -0.062005118
000070 25 4b d3 bc 76 ac 0d 3d 1c 02 45 3d 2a 21 dd bd
       -0.025792668 0.0345883 0.048097715 -0.10797341
000080 f3 64 c8 bd 8b 2e 27 3d 9b 84 e1 bd d4 8e ea bd
       -0.097848795 0.04081587 -0.110116206 -0.114530236
000090 0d 32 90 ba 99 c6 a0 bd 08 e9 31 3d f3 f1 15 3d
       -0.0011001244 -0.078503795 0.043435127 0.036607694
0000a0 34 50 8b 3d e2 53 c4 bd 29 b8 f6 3d 35 08 da bd
       0.06802407 -0.09586312 0.120468445 -0.106460966
0000b0 4e 46 7d bd a9 99 ed bd 5d d0 b9 3d 14 5c 48 bd
       -0.061834626 -0.11601574 0.09072945 -0.048915938
0000c0 77 a9 d9 3c fc 44 03 3d 2a e6 97 3a 28 48 90 3b
       0.026570065 0.03204821 0.001158898 0.004403133
0000d0 75 79 33 3d 19 81 46 3c c8 e3 65 3c 77 e4 8d 3d
       0.043817002 0.01211574 0.014031358 0.06928342
0000e0 d2 25 91 3d 3c a4 3a bc 14 fc fd 3a 33 3b dc bd
       0.07087292 -0.011391696 0.0019377493 -0.10753479
0000f0 87 1a 03 bd 51 9d 30 3d 9f cb d8 3d a9 33 b3 3d
       -0.03200772 0.04311878 0.10585713 0.08750088
